…
      (activation): ReLU()
    )
    (2): MaskedResidualBlock(
      (layers): ModuleList(
        (0): MaskedLinear(in_features=32, out_features=32, bias=True)
        (1): MaskedLinear(in_features=32, out_features=32, bias=True)
      )
      (activation): ReLU()
    )
    (3): MaskedResidualBlock(
      (layers): ModuleList(
        (0): MaskedLinear(in_features=32, out_features=32, bias=True)
        (1): MaskedLinear(in_features=32, out_features=32, bias=True)
      )
      (activation): ReLU()
    )
    (4): MaskedLinear(in_features=32, out_features=50, bias=True)
  )
  (embeddings): ModuleList(
    (0): Embedding(74, 4)
    (1): Embedding(9, 4)
    (2): Embedding(16, 4)
    (3): Embedding(16, 4)
    (4): Embedding(7, 4)
    (5): Embedding(15, 4)
    (6): Embedding(6, 4)
    (7): Embedding(5, 4)
    (8): None
    (9): Embedding(123, 4)
    (10): Embedding(99, 4)
    (11): Embedding(96, 4)
    (12): Embedding(42, 4)
  )
  (unk_embeddings): ParameterList(
      (0): Parameter containing: [torch.FloatTensor of size 1x4]
      (1): Parameter containing: [torch.FloatTensor of size 1x4]
      (2): Parameter containing: [torch.FloatTensor of size 1x4]
      (3): Parameter containing: [torch.FloatTensor of size 1x4]
      (4): Parameter containing: [torch.FloatTensor of size 1x4]
      (5): Parameter containing: [torch.FloatTensor of size 1x4]
…
Column(race, type=category, vocab size=5, min=Amer-Indian-Eskimo, max=White, has NaN=False)
Column(sex, type=category, vocab size=2, min=Female, max=Male, has NaN=False)
Column(capital_gain, type=int64, vocab size=123, min=0, max=99999, has NaN=False)
Column(capital_loss, type=int64, vocab size=99, min=0, max=4356, has NaN=False)
Column(hours_per_week, type=int64, vocab size=96, min=1, max=99, has NaN=False)
Column(native_country, type=category, vocab size=42, min=?, max=Yugoslavia, has NaN=False))
[2022-09-15 23:21:35,918 INFO] lecarb.estimator.utils: Number of model parameters: 17393 (~= 0.07MB)
[2022-09-15 23:21:35,918 INFO] lecarb.estimator.utils: SetConv(
  (sample_mlp1): Linear(in_features=1000, out_features=16, bias=True)
  (sample_mlp2): Linear(in_features=16, out_features=16, bias=True)
  (predicate_mlp1): Linear(in_features=17, out_features=16, bias=True)
  (predicate_mlp2): Linear(in_features=16, out_features=16, bias=True)
  (out_mlp1): Linear(in_features=32, out_features=16, bias=True)
  (out_mlp2): Linear(in_features=16, out_features=1, bias=True)
)
[2022-09-15 23:21:35,918 INFO] lecarb.estimator.mscn.mscn: Overall MSCN model size + sample size = 0.17MB
[2022-09-15 23:21:35,918 INFO] lecarb.estimator.mscn.mscn: load and built mscn estimator: mscn-model=original_base-mscn_hid16_sample1000_ep200_bs1024_100k-123
[2022-09-15 23:21:35,918 INFO] lecarb.estimator.utils: torch threads: 16
[2022-09-15 23:21:35,918 INFO] lecarb.estimator.utils: Start loading queryset:base and labels for version original of dataset census13...
…
